my_model.tflite (tflite, 32412 bytes, 8 tensors)

sequential/dense/BiasAdd/ReadVariableOp f4 [16]
000000 ff a8 78 3d 1a 6b 56 3e f9 42 2d bd c2 4a fa bd
       0.060708042 0.20939294 -0.0423002 -0.1222129
000010 56 7f 51 bd d2 44 08 bd 9e 33 16 bd 8b 00 a2 3e
       -0.051146828 -0.033268757 -0.03667032 0.3164104
000020 bd cc 82 3e 95 ea 82 3e df 23 4c 3e ba cd ac bc
       0.25546828 0.25569597 0.19935559 -0.021094192
000030 9c bd 84 3e dc 3b 91 3d c2 e9 0a 3e b6 cf 5e 3e
       0.2592591 0.070914954 0.13565734 0.21758923

sequential/dense_3/BiasAdd/ReadVariableOp f4 [41]
000000 fb 33 a2 bf dc bc 21 bf 74 2d 73 bf 8c e9 a9 bf
       -1.2672113 -0.631788 -0.9499123 -1.3274398
000010 40 bb 66 bf 03 f8 93 bf 01 cc 9f bf d9 4d 3e bf
       -0.9012947 -1.1560062 -1.2484132 -0.74337536
000020 33 af 00 c0 7b f0 a8 bf b9 cc fc bf 9a 1d df bf
       -2.0106933 -1.3198389 -1.9749976 -1.7430909
000030 ec ab da bf c1 d4 a0 bf 86 a4 99 bf ed fb 95 bf
       -1.7083716 -1.2564927 -1.2003334 -1.1717507
000040 2d a8 c9 bf 26 40 65 bf dd 67 94 bf 2b bb df bf
       -1.5754448 -0.8955101 -1.1594197 -1.7478994
000050 39 c2 84 bf 7d 11 5c bf 72 69 9f bf 1d 08 a9 bf
       -1.0371772 -0.85964185 -1.2454054 -1.3205601
000060 67 9b cd bf 59 07 e5 bf 12 d1 a5 bf 36 12 43 bf
       -1.606305 -1.7892867 -1.2954428 -0.7619966
000070 c4 0f 90 bf ae a1 b9 bf 47 0b eb bf 34 51 a2 bf
       -1.1254811 -1.4502466 -1.8362817 -1.2681031
000080 e4 bc 84 bf 55 84 95 bf a4 93 ad bf 6c 64 b6 bf
       -1.0370145 -1.168101 -1.3560681 -1.4249396
000090 8f 7f 03 c0 aa b4 ef bf f9 25 d1 be d3 e7 b2 bf
       -2.0546606 -1.8727009 -0.40849283 -1.3976997
0000a0 d1 83 91 bf
       -1.1368352

sequential/dense_2/BiasAdd/ReadVariableOp f4 [64]
000000 8f f5 08 3f 5e 63 0b 3e bd d9 f1 3e 58 c8 17 3f
       0.5349969 0.13612124 0.47236434 0.59290075
000010 99 99 90 3f 9f af c9 3e 54 b8 fa 3e 1b 13 dd 3e
       1.1296874 0.393918 0.48968756 0.4317864
000020 90 85 00 bd f8 0f 27 3e 32 94 d6 3e d2 d6 1c 3f
       -0.031377375 0.16314685 0.4190994 0.6126529
000030 98 87 0c 3e d5 df b2 3e 43 b7 b2 bd 0f ad b8 3d
       0.137236 0.34936395 -0.08726361 0.09017383
000040 e3 82 ef 3e 2d c8 4c 3f 9e 42 f0 3d e6 85 b2 3e
       0.46779546 0.79992944 0.11731456 0.3486778
000050 4b e8 df 3e 73 49 93 bd 87 40 3e 3d fd 36 9d 3c
       0.43731913 -0.07191744 0.046448257 0.01919126
000060 5d 58 d7 3e 96 c0 78 3e b0 38 90 3e 37 a6 97 3e
       0.42059603 0.24292216 0.2816825 0.29619
000070 82 45 60 3d 47 66 df 3e 7d 34 d0 3e 16 19 23 be
       0.054753788 0.4363272 0.40665045 -0.15927538
000080 18 c0 52 3e fb 13 4e 3e 91 e5 44 bc c0 38 02 3e
       0.2058109 0.2012481 -0.0120176235 0.12716961
000090 1a 68 41 3f 1a 6a cc 3e 9d 51 01 bd fc 79 e5 3e
       0.7554947 0.399247 -0.031571973 0.4481963
0000a0 ff e6 00 3f c0 96 cf 3a 98 2c 3b 3f 38 fb 85 3e
       0.5035247 0.0015837774 0.7311492 0.26168227
0000b0 03 2e c2 3e f7 da 27 3f 58 f5 a7 bd 73 15 ab 3e
       0.3792573 0.6556849 -0.082010925 0.33414802
0000c0 30 34 a3 bd 61 65 9c 3e c5 85 cf 3e 00 00 00 00
       -0.07968938 0.30546096 0.40531746 0.0
0000d0 35 a1 90 bd 25 8e 41 bd d0 59 01 bd 70 43 91 bd
       -0.07061998 -0.0472547 -0.031579792 -0.07092941
0000e0 a3 50 b3 bb 41 46 30 3e 1b b4 00 bd 91 2d 0e 3f
       -0.005472259 0.172143 -0.031421762 0.5553828
0000f0 ce 3c 8b 3e dd a0 f1 3e 48 e6 3c bc 44 09 a4 3e
       0.27194828 0.4719304 -0.011529513 0.3203832

sequential/dense_1/BiasAdd/ReadVariableOp f4 [32]
000000 0f cf 32 3e 50 2b 80 3e 8a 7f b2 bb 18 83 61 bc
       0.17461799 0.25033045 -0.0054473327 -0.013764165
000010 d5 7d 8a 3e b2 19 12 be 0f bf 35 bd 1a 88 c4 bc
       0.27049127 -0.14267614 -0.04437166 -0.02399068
000020 67 3a 55 bd 60 92 cb bd 20 91 29 bb e4 07 8c bb
       -0.05205765 -0.09940028 -0.0025873855 -0.0042734016
000030 51 59 0d bd 08 a2 e5 bb d7 7d b2 3e f1 24 94 bd
       -0.034509007 -0.007007841 0.34861633 -0.072336085
000040 c7 ee f5 bd f0 76 e2 ba 08 7e fa bc b0 31 2f bc
       -0.12008434 -0.0017277878 -0.030577675 -0.010692999
000050 3b be c9 bc 66 b4 67 bc a2 95 70 be f9 e3 db bd
       -0.024626842 -0.014142131 -0.2349458 -0.10736842
000060 ed fa b2 bd 07 09 9b bb a6 57 1b bb b0 9d 20 ba
       -0.087392665 -0.0047313008 -0.0023703366 -0.0006127013
000070 bc 87 89 bd 14 71 2a 3d 59 13 cc bb ce 3e d3 bc
       -0.067153424 0.041611746 -0.0062278924 -0.025786784

sequential/dense/MatMul f4 [16, 131]
000000 68 73 a7 bc 0c 98 34 bd fa b9 bf 3b 19 61 1a ba
       -0.020440772 -0.044090316 0.0058510276 -0.00058891025
000010 e1 51 a6 3c 74 fb cb b9 a5 b1 22 bc c2 e9 6d bd
       0.020302715 -0.00038906524 -0.009930049 -0.058084257
000020 22 c4 c1 bc 7e 0d 86 b8 9e 59 79 ba 9c 3f 07 3b
       -0.023653094 -6.392131e-05 -0.000951195 0.002063728
000030 81 e2 83 af c6 c0 10 2b 19 12 10 3c 30 6f df bb
       -2.3989702e-10 5.1426604e-13 0.008793377 -0.0068186745
000040 9c 3f 07 3b 62 e0 0b bb 43 4f d3 bb d6 d0 14 bb
       0.002063728 -0.002134346 -0.0064486577 -0.0022707484
000050 49 5d 07 3b ff 89 1e bd 22 27 75 bb 02 77 6a bc
       0.0020654968 -0.038705822 -0.0037407358 -0.0143106
000060 a9 b3 ef bc 70 f6 0f 3d 28 42 94 bb 3f be b4 3c
       -0.029260473 0.03514713 -0.004524488 0.022063373
000070 f5 4f b3 3b c5 56 8c bc 5d 3f 7f bb ad 16 2b 3c
       0.005472178 -0.017131219 -0.003894768 0.010442418
000080 95 eb 35 bd 7c c5 0f 3d fa 81 ae ba 5b 86 c6 3c
       -0.04441412 0.035100445 -0.0013313883 0.024233988
000090 9c 3f 07 3b 64 11 94 bb c8 13 22 bd 81 e2 83 af
       0.002063728 -0.0045186747 -0.039569646 -2.3989702e-10
0000a0 03 8f 35 bd 80 21 f8 3c ff 4d 14 a2 08 49 79 ba
       -0.04432584 0.030289412 -2.009903e-18 -0.00095094787
0000b0 15 40 0e ba fe 4b 07 3b 92 15 55 bc ff 4d 14 a2
       -0.0005426419 0.002064466 -0.013005631 -2.009903e-18
0000c0 69 08 6c bd 14 73 06 bc cc 29 a7 bc 8c e7 93 bb
       -0.057625208 -0.008206148 -0.020405672 -0.0045136865
0000d0 fd b1 ac 3c 64 54 8b bc 5b 35 c7 b8 a5 b7 22 3d
       0.021080965 -0.017008014 -9.498998e-05 0.03972592
0000e0 3f 88 64 bd 06 7e 37 bb bd 84 73 ba c4 04 ee b6
       -0.055793997 -0.00279987 -0.0009289494 -7.0935075e-06
0000f0 e4 57 89 a2 23 d2 e6 3c d6 61 3a bd 01 e3 b5 3c
       -3.7226982e-18 0.028176373 -0.04550346 0.02220297
000100 08 fe 49 3d 35 61 82 bd 9b 5b b4 ba 5d 3f 7f bb
       0.04931453 -0.06366197 -0.0013760211 -0.003894768
000110 2b d1 20 bd 81 e2 83 af d2 e3 13 bd 63 60 9b bc
       -0.039261978 -2.3989702e-10 -0.03610594 -0.01896686
000120 f4 b9 00 3d 00 9f c8 3c 41 3c f1 3a ee 6f 81 3c
       0.03142734 0.02448988 0.0018404798 0.015800443
000130 81 e2 83 af 81 cb 59 29 fa 6b a7 ba 62 44 41 3c
       -2.3989702e-10 4.836019e-14 -0.0012773268 0.011796089
000140 81 e2 83 af 1e e6 80 3c e4 57 89 a2 9b 00 69 29
       -2.3989702e-10 0.015734728 -3.7226982e-18 5.1736918e-14
000150 9d c4 8e 3b 14 6b 14 bc 99 83 00 bd 9b 00 69 29
       0.004356934 -0.009058733 -0.0313755 5.1736918e-14
000160 c8 f3 90 3b 96 30 db bb f1 44 ee b6 ab 73 4c bd
       0.0044235922 -0.0066891415 -7.1009786e-06 -0.049914997
000170 66 aa 43 3c 93 46 b4 ba 0e f6 13 a2 f1 96 ab ba
       0.011942482 -0.0013753943 -2.0052475e-18 -0.0013091249
000180 43 d4 14 bb 20 56 ea bc 7f 41 41 3c bd 31 9c bc
       -0.0022709526 -0.02860552 0.011795401 -0.019066686
000190 5a 73 65 3a 09 97 0e 3b e1 13 22 bd 41 68 0e bc
       0.00087528455 0.0021757504 -0.03956974 -0.008691848
0001a0 9c 3f 07 3b 08 4c 14 a2 2d 21 3a 3b bc 63 a4 ba
       0.002063728 -2.009799e-18 0.0028401122 -0.001254193
0001b0 c1 1a be bc a2 c1 01 bb 05 14 3e bd 76 bd 3e 3d
       -0.023206117 -0.0019799252 -0.04640581 0.046567403
0001c0 04 f5 bd bc 7c c5 0f 3d 8a 33 b1 bc 9e 42 97 b8
       -0.023188122 0.035100445 -0.021631021 -7.2126495e-05
0001d0 eb 41 c0 bc 79 8a 26 3d 65 9a dc bc 67 6a a9 3c
       -0.023468932 0.0406594 -0.02692909 0.02068062
0001e0 34 61 da bb 5d 3f 7f bb 65 d3 90 bb bd 8d 49 bc
       -0.0066644195 -0.003894768 -0.0044197314 -0.012301859
0001f0 81 e2 83 af 0d 2d a4 bc 1b 6e 96 bc 55 fc 29 bc
       -2.3989702e-10 -0.020041013 -0.01836305 -0.010375102
000200 9d 76 5d bd d0 d2 8b b8 65 62 f2 26 8d 00 1f bd
       -0.054068197 -6.6673034e-05 1.6818793e-15 -0.038818885
000210 d1 a3 11 bd 60 d1 79 3d c8 d9 ab 3d 70 66 11 3e
       -0.035556618 0.06099069 0.08391148 0.14199233
000220 1b 8c 08 3e d2 81 70 3d 9e 78 f0 3d 78 51 d3 3c
       0.13334696 0.058717556 0.11741756 0.025795683
000230 15 c6 20 3d aa 4b 73 3d 38 dc a5 b8 fe 88 f9 3c
       0.039251406 0.05939833 -7.908832e-05 0.03046083
000240 48 4e 06 3e 22 51 5b bc 9b 0a 51 bd 60 18 a9 b8
       0.131158 -0.013386043 -0.051035505 -8.063088e-05
000250 46 fa 91 3d da 4b c7 bd 5f 09 94 3d c0 c5 a3 b8
       0.07127814 -0.097312644 0.0722835 -7.8092795e-05
000260 9c 4b 52 bd 5d 14 69 bd 3f de 85 bc 7c b4 ef 3d
       -0.051341638 -0.056904186 -0.016341327 0.117043465
000270 3f 13 98 3d 35 31 5e bd 9c 2a da bc 21 dc 08 bd
       0.07425546 -0.054246146 -0.026631646 -0.033413056
000280 8d 00 1f bd 6c 40 12 3d 38 58 ff 3d 25 36 04 bd
       -0.038818885 0.03570597 0.12467998 -0.0322782
000290 8f d0 9c 3d 71 9b a8 3d d4 29 9b bd 60 18 a9 b8
       0.07656967 0.08232773 -0.075763375 -8.063088e-05
0002a0 1a 22 35 be 0f 10 4e bd fe 88 f9 3c b2 a9 6d 3d
       -0.1768879 -0.050308283 0.03046083 0.058023162
0002b0 37 e1 3e bd 54 7d 2e bd 4a 9a 71 3d 5c e6 49 3d
       -0.0466015 -0.04259999 0.058985032 0.049291953
0002c0 f6 67 41 b0 61 ff a8 bc 54 7d 2e bd 7f 4f f8 bd
       -7.036073e-10 -0.020629587 -0.04259999 -0.12124538
0002d0 d8 a8 be bc 8d 00 1f bd 94 ac 81 bd f3 bc 89 bd
       -0.02327387 -0.038818885 -0.06331745 -0.06725492
0002e0 b6 b6 8c 3d 10 25 20 3d 31 68 46 bd f4 1f 4d 3d
       0.06870787 0.039097846 -0.04843921 0.0500793
0002f0 9b 29 ab 3e d6 c3 cc 3d e3 5d 88 3a e1 3f 3b 3c
       0.3343018 0.0999829 0.0010403957 0.011428804
000300 37 b0 29 3e ed e2 83 3d 07 a3 80 3d 18 94 51 3e
       0.16571127 0.06439767 0.06281095 0.2046665
000310 e7 2a 83 3d cc 77 a3 3d 13 b1 00 3d e8 b2 16 bd
       0.06404667 0.07981834 0.03141887 -0.036791712
000320 fe 88 f9 3c 3f 79 d1 bd e5 86 93 3d b8 9e e2 3d
       0.03046083 -0.10228204 0.072034635 0.110654294
000330 96 c4 61 3d e9 58 9d 3d d4 35 00 be fe 88 f9 3c
       0.05511912 0.07682974 -0.12520534 0.03046083
000340 ef 10 ed bd b0 37 b5 3d 1d 51 5b bc fe 88 f9 3c
       -0.115754955 0.08848512 -0.013386038 0.03046083
000350 6a 9a 7c bd fe a7 3e 3c 63 d9 07 be 6b 37 ab bd
       -0.0616707 0.011636732 -0.1326652 -0.083601795
000360 59 d8 44 3d da fc 49 bd 63 d9 07 be 04 ff 0d 3d
       0.048057888 -0.049313404 -0.1326652 0.03466703
000370 2c 3f 9d bb 46 50 e0 3d a3 f2 d6 3d 00 51 5b bc
       -0.0047987904 0.10952811 0.10495498 -0.013386011
000380 67 db b5 3d 0f 47 2e bd e0 10 9f bd 16 d4 94 3d
       0.08879738 -0.042548236 -0.077668905 0.07267015
000390 f2 60 79 be 17 51 5b bc 0e ba 3d be 64 92 f8 bd
       -0.24353388 -0.013386033 -0.18528005 -0.12137297
0003a0 44 5c 1e 3d d9 e1 50 bd df 45 7e 3d 60 18 a9 b8
       0.03866221 -0.050996635 0.062078353 -8.063088e-05
0003b0 7d fc f2 bc 0e f1 15 3d 6c 84 b8 3d f0 d2 d9 bd
       -0.029661411 0.03660684 0.090096325 -0.10635936
0003c0 5c 20 df 3d 9c 21 64 3e 49 18 35 bd df fc d5 bd
       0.10894844 0.22278446 -0.044212613 -0.10448622
0003d0 8f d0 9c 3d b0 47 1c 3e 2c 6e a6 bd c0 b9 64 bd
       0.07656967 0.15261722 -0.08126482 -0.055841208
0003e0 23 ef 41 bd 74 a4 c4 bd 00 e4 94 bd 29 9e d4 bc
       -0.0473472 -0.096016794 -0.0727005 -0.025954323
0003f0 6c 40 12 3d 7e 12 d6 3e c2 3d 00 bd fe 88 f9 3c
       0.03570597 0.41810983 -0.031308897 0.03046083

sequential/dense_1/MatMul f4 [32, 16]
000000 d1 21 0f bb 4d 13 9c 3d 81 7a 63 04 09 88 73 04
       -0.0021840225 0.07620869 2.6739973e-36 2.8626977e-36
000010 2c 8b 5c 04 94 6f 5d 04 ca ed 6c 84 13 ef 77 be
       2.592478e-36 2.602966e-36 -2.7850854e-36 -0.24212293
000020 7c e9 ca bd 57 5d 8e 3c 89 70 50 3d 35 5a d9 ba
       -0.09907815 0.017378492 0.050888572 -0.001658267
000030 dd 8c fe be e3 e0 60 3e 17 ca 33 bd 9c 93 30 3f
       -0.49716845 0.21960787 -0.0438939 0.68975234
000040 c5 3e 9c bd 8f c4 4c 3f 5f df 5a 04 52 d6 77 04
       -0.0762916 0.79987425 2.5728344e-36 2.9133122e-36
000050 26 3c 77 84 f2 bd 78 04 ac d4 5a 04 40 c9 19 3e
       -2.906233e-36 2.9239479e-36 2.5723431e-36 0.15018177
000060 44 aa 32 3f c1 08 4e be 5e 0f 3c 3e b0 c3 9b 3b
       0.69791055 -0.20120527 0.18365237 0.0047535524
000070 11 d7 27 be 00 7c 78 be 68 2e 81 be f2 2b 4f be
       -0.16390635 -0.24266052 -0.25230718 -0.20231608
000080 4a c8 79 84 60 21 69 84 a8 bc 69 84 8c 1d 5f 84
       -2.9361778e-36 -2.7404343e-36 -2.7475645e-36 -2.6227091e-36
000090 82 5f 62 84 5f 6d 64 84 79 36 5c 04 dc 65 5e 84
       -2.6610027e-36 -2.6851492e-36 2.5885888e-36 -2.6142746e-36
0000a0 04 1f 61 84 e5 9d 72 84 01 96 77 84 6a 0e 5b 84
       -2.6462865e-36 -2.8519465e-36 -2.9103589e-36 -2.5749945e-36
0000b0 76 df 67 84 aa e2 78 84 b8 aa 64 84 fd d0 6d 84
       -2.7256528e-36 -2.9256339e-36 -2.6879661e-36 -2.7955179e-36
0000c0 63 95 5c 84 4c cc 64 84 33 e7 63 84 0e 51 70 84
       -2.592947e-36 -2.689508e-36 -2.6789883e-36 -2.8249083e-36
0000d0 74 a6 5b 84 b7 9d 5d 84 61 ba 62 84 8e bc 66 84
       -2.5819758e-36 -2.6050844e-36 -2.6651753e-36 -2.712295e-36
0000e0 f6 af 67 04 bb d0 69 84 8b 1a 60 84 35 79 70 84
       2.7234717e-36 -2.7484863e-36 -2.6343261e-36 -2.826752e-36
0000f0 2c 73 71 84 4d 6b 70 84 99 55 72 84 8b d9 76 04
       -2.8382298e-36 -2.8261135e-36 -2.8486268e-36 2.9017052e-36
000100 dd 09 3c be 7d e9 e7 be 3d 72 71 84 d2 f3 6e 84
       -0.18363138 -0.45295325 -2.838187e-36 -2.8088722e-36
000110 8e f9 5b 04 54 e6 61 04 b9 51 61 84 01 76 29 3f
       2.5857916e-36 2.6554384e-36 -2.6486148e-36 0.66195685
000120 88 9a fc 3e af 43 80 3e ac d2 c8 be 4d 40 ad b8
       0.49336648 0.25051638 -0.3922323 -8.26126e-05
000130 d0 97 70 be b8 aa e3 be c1 6d ef 3d ab 39 43 3e
       -0.23495412 -0.44466186 0.11690856 0.19064967
000140 05 af 6d 84 02 e9 6e 84 5d b7 70 84 b5 a5 62 04
       -2.7939581e-36 -2.8083757e-36 -2.829606e-36 2.6642261e-36
000150 2f 69 6f 84 75 bc 76 84 c4 3f 67 84 b0 95 77 84
       -2.8142613e-36 -2.9003696e-36 -2.71832e-36 -2.9103444e-36
000160 e2 d8 69 84 d4 58 79 84 b9 08 5b 84 5b 49 71 84
       -2.7488606e-36 -2.9310597e-36 -2.5747332e-36 -2.8363097e-36
000170 01 95 61 84 be 2d 69 84 b8 06 79 84 da 9f 60 04
       -2.6517042e-36 -2.7410022e-36 -2.9272894e-36 2.6404474e-36
000180 c7 f5 b1 bd 5c 8a 8e be 66 fd 77 04 44 7c 65 04
       -0.086894564 -0.27839935 2.9151065e-36 2.697588e-36
000190 52 c6 65 84 a6 96 6b 04 4a 63 5e 04 0c af 95 be
       -2.7009885e-36 2.7693292e-36 2.6141566e-36 -0.29235113
0001a0 9b f3 15 3f a2 87 69 3e cb 47 b1 3d d5 34 6b 3c
       0.5857484 0.22805646 0.086562715 0.014355858
0001b0 8b b9 33 3f 38 91 82 bd 70 21 c9 bd 93 f6 0c 3f
       0.7020499 -0.063753545 -0.09820831 0.5506374
0001c0 f0 bd 5e 84 32 70 65 84 20 ac 62 84 59 36 5f 84
       -2.618319e-36 -2.6970338e-36 -2.6645208e-36 -2.623848e-36
0001d0 68 6b 67 84 dd 73 72 04 c0 ac 5d 84 be 0b 75 84
       -2.7203238e-36 2.8500165e-36 -2.6057748e-36 -2.8805003e-36
0001e0 3c 52 5d 84 be a4 6e 84 e4 b0 67 84 82 5c 6a 84
       -2.6016185e-36 -2.8052411e-36 -2.7235144e-36 -2.7549045e-36
0001f0 57 b2 64 84 76 f0 68 84 0e 2e 5d 84 12 cc 6f 84
       -2.688316e-36 -2.7381883e-36 -2.5999572e-36 -2.818802e-36
000200 f2 b7 ec bc f9 12 7d 3e 0f e2 5a 84 48 33 79 04
       -0.028896306 0.24714269 -2.5729578e-36 2.9293357e-36
000210 12 6d 69 04 fe 84 64 04 e5 7f 70 84 93 80 23 3f
       2.7439101e-36 2.6862338e-36 -2.827059e-36 0.63868064
000220 8f ae af bd 78 b4 09 3d eb 9a 20 be e4 f1 08 bb
       -0.08578216 0.033619374 -0.15684097 -0.0020896131
000230 69 df 26 be 24 d3 d3 3e d8 a8 0f bd 92 63 98 3d
       -0.16296162 0.41372025 -0.03507313 0.074408665
000240 a3 c7 76 84 24 a2 6a 04 61 58 6c 04 b7 d8 6d 84
       -2.900883e-36 2.758102e-36 2.7782248e-36 -2.7958727e-36
000250 ec e4 73 84 87 a5 76 84 b5 bf 75 84 1f e3 62 04
       -2.8669628e-36 -2.8993167e-36 -2.888764e-36 2.6670461e-36
000260 a8 06 6e 84 c9 ed 71 84 01 6f 65 84 b6 0c 65 84
       -2.7979822e-36 -2.84386e-36 -2.6969791e-36 -2.6924657e-36
000270 b2 08 71 84 1c 84 72 84 0b 87 79 84 40 74 68 04
       -2.8333407e-36 -2.8507625e-36 -2.9331818e-36 2.7324848e-36
000280 dc 2a 62 84 7a 71 64 84 a2 2e 6a 84 20 58 5c 84
       -2.6585852e-36 -2.6853377e-36 -2.752798e-36 -2.590134e-36
000290 10 65 63 04 8e 83 70 84 40 fe 76 84 58 bd 6a 04
       2.6730127e-36 -2.8272271e-36 -2.9033907e-36 2.759351e-36
0002a0 cc 10 5c 84 5b 96 6c 84 4a ae 6b 84 1d ee 70 84
       -2.5868588e-36 -2.7810707e-36 -2.7704147e-36 -2.83212e-36
0002b0 10 da 77 84 d2 b1 73 84 05 1a 67 04 e7 f6 75 84
       -2.913484e-36 -2.8646164e-36 2.7165867e-36 -2.8912984e-36
0002c0 b1 37 64 84 4c 01 68 84 7b 9c 5e 84 4a 60 71 84
       -2.6826843e-36 -2.7272064e-36 -2.6167827e-36 -2.8373628e-36
0002d0 6e 39 60 84 2c 2f 5b 04 f2 e9 60 84 49 2d 73 84
       -2.6357444e-36 2.5764987e-36 -2.6438496e-36 -2.8585307e-36
0002e0 c8 8c 69 84 f0 cd 70 84 ea f5 5f 84 3c a2 70 84
       -2.7453662e-36 -2.8306426e-36 -2.6326442e-36 -2.8286359e-36
0002f0 e1 41 75 84 33 e9 63 84 3e 50 6e 84 d9 89 5b 84
       -2.8829862e-36 -2.6790802e-36 -2.8013611e-36 -2.5806623e-36
000300 fa d0 79 84 cc 25 6e 84 00 6e 60 84 37 a9 64 84
       -2.9365767e-36 -2.7994121e-36 -2.6381583e-36 -2.687897e-36
000310 e5 ed 66 84 48 84 78 04 26 e4 68 84 e6 19 6e 84
       -2.7145606e-36 2.9213e-36 -2.737623e-36 -2.7988658e-36
000320 57 aa 5c 84 76 61 6a 84 3e 35 5b 84 c0 de 69 84
       -2.5939092e-36 -2.755132e-36 -2.5767774e-36 -2.74913e-36
000330 c7 2c 61 84 68 00 5f 84 4c 7e 5b 84 9e fd 5b 84
       -2.6469184e-36 -2.621371e-36 -2.5801319e-36 -2.5859782e-36
000340 68 d9 22 a7 fa d1 60 a8 9b 23 78 84 9c 9d 5f 84
       -2.2599872e-15 -1.2480029e-14 -2.916861e-36 -2.6285895e-36
000350 ba a9 76 84 a4 72 78 84 6a c5 65 84 f7 ce 0f a9
       -2.8995096e-36 -2.92049e-36 -2.7009469e-36 -3.1931892e-14
000360 38 78 43 a5 de 35 82 a8 ce 47 0d a8 b2 46 a6 a2
       -1.6954286e-16 -1.445626e-14 -7.8426425e-15 -4.506924e-18
000370 11 99 dd a8 20 e0 1f a9 df 85 0a a6 c6 3b 0e a8
       -2.460231e-14 -3.549949e-14 -4.8059797e-16 -7.895545e-15
000380 c5 3c 46 3c f0 1b 68 3e 19 3d 62 04 0c 31 65 04
       0.0120994495 0.22666907 2.6594227e-36 2.6941342e-36
000390 ea 61 72 84 7a 9b 73 04 06 12 62 04 a6 14 9d 3e
       -2.8491923e-36 2.8635904e-36 2.6574448e-36 0.30679816
0003a0 d7 fa 18 3d b2 63 f1 be 4b 71 82 be f7 d3 1c 3a
       0.037348595 -0.47146374 -0.2547706 0.0005982513
0003b0 b0 cf df 3e 45 40 1e 3f 40 4d 8c be a8 c8 8e 3e
       0.4371314 0.6181682 -0.27402687 0.27887464
0003c0 2c 0e 5d 3d 9e d7 44 be 5e cd 74 84 63 46 6f 84
       0.053968593 -0.19222876 -2.8776362e-36 -2.8126635e-36
0003d0 26 3a 79 84 4c 86 6a 04 35 84 72 04 09 a6 37 3d
       -2.929651e-36 2.7568234e-36 2.850767e-36 0.044836078
0003e0 3f cd d5 bc f0 ec 34 3e 99 6e 8a 3e 6c 89 da ba
       -0.026098846 0.1766851 0.27037504 -0.0016673035
0003f0 24 46 d3 3e 1b 09 5f 3e 85 70 8c be 75 c3 cf bd
       0.4126445 0.21780817 -0.27429596 -0.10144702

sequential/dense_2/MatMul f4 [64, 32]
000000 4c 33 a1 bd 5d a2 90 be 0a 25 6a 84 f7 53 75 84
       -0.07871112 -0.28248873 -2.7523575e-36 -2.8838166e-36
000010 c5 13 23 be a6 45 5b 84 51 c9 64 bd 6c af 6e 04
       -0.1592551 -2.5775307e-36 -0.055856053 2.8057315e-36
000020 34 6b 11 be 70 c3 5d 84 01 2c 71 84 19 95 62 84
       -0.14201051 -2.6068166e-36 -2.834962e-36 -2.6634635e-36
000030 a0 03 60 04 fb 47 b9 a4 a7 a3 16 be fe 64 13 3e
       2.6332738e-36 -8.03529e-17 -0.14710866 0.14393994
000040 c4 c2 64 84 28 4f 65 84 b2 48 5e 84 cb bb 71 84
       -2.6890703e-36 -2.6955167e-36 -2.6129355e-36 -2.8415644e-36
000050 60 34 5e 84 a5 fa 6d 04 0e 5a 6c 84 f1 a1 0b be
       -2.6120024e-36 2.7974306e-36 -2.7783018e-36 -0.13635994
000060 92 ac 04 bd d0 de 84 3e 10 77 75 84 e9 9c 72 84
       -0.03239114 0.25951242 -2.8854282e-36 -2.8519013e-36
000070 0b 31 68 04 6a 89 9f bb 7e f6 5c 84 2b fc 5a 04
       2.7293988e-36 -0.004868676 -2.597406e-36 2.5741567e-36
000080 ac 46 8c 3d 48 35 d7 3e 8f 94 63 04 86 63 5e 04
       0.06849417 0.42032838 2.6751937e-36 2.6141674e-36
000090 5c b7 38 3d 91 c0 72 84 f1 78 24 3e 5e 3b 67 04
       0.04509674 -2.8535385e-36 0.1606176 2.718118e-36
0000a0 70 d5 9a bd 92 9e 6d 84 da 63 72 04 28 b4 5e 84
       -0.07560241 -2.7932028e-36 2.8492813e-36 -2.6178698e-36
0000b0 dd b5 5c 04 e0 9f d7 a2 0f 6e ab bc 63 5f 96 bd
       2.5944383e-36 -5.844514e-18 -0.020926503 -0.07342412
0000c0 81 29 64 04 54 5b 5b 84 7b 68 64 84 7e e6 63 84
       2.6820329e-36 -2.5785262e-36 -2.6849246e-36 -2.6789559e-36
0000d0 3a 14 65 04 00 21 79 84 cb 8b 5c 04 e3 ba 5f 3d
       2.6928108e-36 -2.9284962e-36 2.5925066e-36 0.05462159
0000e0 9a 6c 68 3d d4 16 87 bd 25 2a 77 04 6c 4a 78 84
       0.056744196 -0.06596151 2.9054062e-36 -2.9186433e-36
0000f0 72 82 62 04 b7 44 7f be 1d bf 63 04 f3 a2 66 04
       2.662607e-36 -0.24928556 2.6771477e-36 2.7111193e-36
000100 ff a3 74 ba a3 e2 63 3e 1e 3b 73 04 da 64 72 04
       -0.00093322987 0.22254424 2.8591658e-36 2.8493272e-36
000110 ee 93 6c 3d 64 2d 6e 84 43 78 21 be 7c cd 65 84
       0.057758264 -2.7997608e-36 -0.15768532 -2.7013174e-36
000120 f3 dd af bd ba fd 64 04 08 f0 64 04 8b 4d 68 84
       -0.08587255 2.6917777e-36 2.6911488e-36 -2.7307075e-36
000130 12 37 66 04 4a 28 92 23 b3 e1 9c be 56 5b d2 bd
       2.7061657e-36 1.5846415e-17 -0.30640945 -0.10271327
000140 b4 d2 5e 04 c8 b7 79 04 c7 3f 77 84 ee bb 5e 04
       2.6192725e-36 2.9354198e-36 -2.9063996e-36 2.6182268e-36
000150 c9 09 75 04 cf 17 76 04 5a f0 62 04 44 85 f5 3d
       2.8804105e-36 2.8928093e-36 2.6676536e-36 0.11988309
000160 76 cf 55 3e 78 b7 ce bc f1 a2 5c 04 49 bc 5b 04
       0.20879921 -0.02523397 2.5935695e-36 2.5829783e-36
000170 74 8b 74 84 d6 68 3a bd 2e d6 62 04 f4 5a 5f 84
       -2.8746096e-36 -0.045510136 2.6664519e-36 -2.6255288e-36
000180 ff 58 3d be 9f d9 4b be 67 b1 77 04 33 34 67 84
       -0.1849098 -0.19907235 2.911617e-36 -2.7177888e-36
000190 3b 8c 91 bc da 87 72 04 f2 50 4c be 8a e0 70 04
       -0.017767062 2.8509343e-36 -0.19952753 2.8314968e-36
0001a0 17 e4 00 bd 50 c7 6d 84 64 47 79 04 db e4 6f 84
       -0.031467523 -2.7950736e-36 2.930259e-36 -2.81994e-36
0001b0 47 98 73 84 3e 87 b1 23 a7 1b a7 3d 71 2c 8e 3c
       -2.8634435e-36 1.9247656e-17 0.08159571 0.017355176
0001c0 08 7b 62 84 a3 ef 5b 04 ba b9 6d 04 96 d5 60 04
       -2.6622666e-36 2.5853362e-36 2.7944498e-36 2.6429147e-36
0001d0 41 91 64 84 0c 92 66 04 c0 bc 67 04 58 a6 78 be
       -2.6867969e-36 2.7103432e-36 2.724059e-36 -0.24282205
0001e0 a0 a6 67 3e 50 6f 84 bc ff 7c 5b 84 a8 70 70 84
       0.22622156 -0.01616636 -2.5800722e-36 -2.8263594e-36
0001f0 0a d1 73 04 42 a2 0b be d2 81 64 04 19 39 67 04
       2.8660499e-36 -0.13636115 2.6860882e-36 2.7180137e-36
000200 7a 41 91 bd d0 95 50 bd f7 02 60 04 49 6e 5b 04
       -0.07092567 -0.050924122 2.6332435e-36 2.5793967e-36
000210 a5 f9 ed 3b f0 e3 69 84 e1 d5 5d be 87 f0 5c 84
       0.007262426 -2.7493682e-36 -0.2166362 -2.597132e-36
000220 9f d6 53 bd 96 be 77 84 c1 db 74 84 1c 45 73 84
       -0.05171835 -2.9122223e-36 -2.8782968e-36 -2.8596246e-36
000230 32 0e 60 84 36 cd b4 23 2f 15 b6 bd 73 cd 00 3d
       -2.6337592e-36 1.960255e-17 -0.08890759 0.03144593
000240 c7 dc 77 84 2a f8 68 04 d4 97 70 04 88 0d 67 04
       -2.9136086e-36 2.738542e-36 2.828158e-36 2.7160133e-36
000250 6e f4 5e 84 16 4a 65 84 d7 9a 79 84 b2 e8 08 be
       -2.6208211e-36 -2.695284e-36 -2.9340908e-36 -0.13370016
000260 20 38 ab be a2 8d 9b 3d 78 a3 5b 04 e7 53 76 04
       -0.33441257 0.07595374 2.5818387e-36 2.8955687e-36
000270 8d 70 79 84 46 72 b9 bc 10 19 5f 84 a8 f2 64 84
       -2.932149e-36 -0.022637498 -2.6225032e-36 -2.6912693e-36
000280 44 22 aa be f7 4e a4 bd 78 ba 5c 04 97 9e 72 84
       -0.33229268 -0.08022874 2.5946498e-36 -2.8519784e-36
000290 59 45 c3 3d 5d 4c 67 84 47 a6 b6 bd 4d bf 6a 84
       0.095347114 -2.7188984e-36 -0.08918434 -2.7594409e-36
0002a0 46 70 23 bd f8 7f 67 84 a4 81 71 04 ed 4c 5b 84
       -0.039901994 -2.721268e-36 2.8388942e-36 -2.5778649e-36
0002b0 de 6a 63 84 e0 74 62 24 1a 60 fa 3c 52 f5 ab bb
       -2.6732793e-36 4.9104935e-17 0.030563403 -0.0052477503
0002c0 95 75 71 04 f5 4c 64 04 19 0f 6d 84 4d 29 73 04
       2.8383405e-36 2.6836608e-36 -2.7866149e-36 2.8583477e-36
0002d0 d9 c1 79 04 5c b9 77 04 d3 1e 5b 84 06 f3 3a be
       2.935882e-36 2.9119823e-36 -2.575748e-36 -0.18256769
0002e0 95 51 7f 3e 9e ba 1b be 0b b5 5c 04 d3 7a 65 04
       0.24933465 -0.15207908 2.5944007e-36 2.6975219e-36
0002f0 e4 d9 78 84 24 3f 6b 3d a8 3c 64 04 2b 9a 60 84
       -2.925231e-36 0.057433262 2.6829123e-36 -2.6401864e-36
000300 b8 52 7c bd c0 ba 60 3b 51 ae 6b 04 fc 5a 69 84
       -0.061602324 0.0034291 2.770416e-36 -2.7430796e-36
000310 ad 76 89 3e e4 6f 6f 84 0d ab 6c bd a6 26 79 84
       0.26848355 -2.8145693e-36 -0.057780314 -2.9287556e-36
000320 2c 15 25 3e 24 c2 68 84 8c 64 72 84 14 38 6d 04
       0.16121358 -2.7360614e-36 -2.8493132e-36 2.7884966e-36
000330 4a f9 6d 84 c5 a9 ab 25 83 97 9f 3c 3c 9b 96 3b
       -2.7973684e-36 2.9778812e-16 0.019481426 0.004596142
000340 c0 54 6a 04 84 0e 6f 84 b0 d8 5f 04 0e df 5b 04
       2.7545483e-36 -2.810098e-36 2.6313022e-36 2.5845748e-36
000350 2a 98 61 84 b3 2e 73 84 54 e4 5b 84 99 86 03 bd
       -2.6518493e-36 -2.8585956e-36 -2.584817e-36 -0.032110784
000360 ee f4 b1 be 06 9a 90 bd c4 48 5f 04 1e cb 65 04
       -0.3475718 -0.07060628 2.6246936e-36 2.7012087e-36
000370 e1 f2 6b 84 09 fe 5c 3e a4 47 74 84 50 62 6d 84
       -2.7735642e-36 0.21581282 -2.8714958e-36 -2.7904359e-36
000380 be 80 9c 3b 4b ae b7 bd 04 a9 79 84 04 9a 74 84
       0.0047760895 -0.089687906 -2.9347418e-36 -2.8752783e-36
000390 90 20 dc bc c4 b1 77 04 80 ab 9d bc 93 cf 63 84
       -0.026870996 2.9116336e-36 -0.019246817 -2.6779035e-36
0003a0 9d fb 29 be e6 be 70 04 1a 4b 6c 04 52 7d 78 84
       -0.16599889 2.829952e-36 2.7776152e-36 -2.9209804e-36
0003b0 1c 52 5f 04 4e 84 50 20 92 1b 8a be 80 0b 93 bd
       2.6251227e-36 1.7662061e-19 -0.2697416 -0.07179928
0003c0 b6 f2 5e 84 40 7a 65 04 87 7b 6e 84 7e 41 67 84
       -2.6207422e-36 2.6974955e-36 -2.8033487e-36 -2.7183992e-36
0003d0 cf 47 79 04 14 5d 79 04 f8 e2 5a 84 39 ba 11 3e
       2.9302782e-36 2.9312549e-36 -2.5729996e-36 0.14231195
0003e0 b4 43 60 3e d0 4b ef bd 88 51 63 84 03 1b 60 04
       0.21900827 -0.11684382 -2.6721159e-36 2.6343477e-36
0003f0 a7 92 77 04 50 61 0c 3e aa 4e 67 04 b8 08 64 04
       2.910205e-36 0.13708997 2.719004e-36 2.6805275e-36

sequential/dense_3/MatMul f4 [41, 64]
000000 ab 3f fc bf ed da a9 c0 56 3e 50 c0 b6 e0 be be
       -1.970693 -5.3079743 -3.2538047 -0.37280816
000010 eb 27 96 bf 81 63 85 bf 25 18 9e bf bf 85 d2 bf
       -1.1730932 -1.0420991 -1.2351118 -1.6447066
000020 d0 84 7b 3d 78 42 31 c0 39 37 0b c0 bb fc 55 c0
       0.061405957 -2.769682 -2.1752455 -3.3435504
000030 45 f7 d5 be 03 23 ff 3e 6c 6a ee be c6 94 bf bf
       -0.41790214 0.498314 -0.46565568 -1.4967277
000040 5e f3 65 bf c6 46 65 bd 3f 47 58 c0 42 5f c1 bd
       -0.89824474 -0.055975698 -3.3793485 -0.09441997
000050 4e e4 09 c0 3f b7 12 be 46 c1 e5 bf 0e 5c 95 c0
       -2.1545596 -0.14327715 -1.7949607 -4.667487
000060 55 3a f2 bf 61 9f ac c0 f4 4f 2d bf 2a be fc bf
       -1.8924052 -5.3944554 -0.67700124 -1.9745533
000070 3c 4f ed bf eb c3 dd bf 5a 99 1a be 0d e8 a6 be
       -1.8539805 -1.7325414 -0.15097561 -0.32598916
000080 bc d8 fe be ff 98 e1 bf 9b ff 0d be d8 e7 80 bf
       -0.4977473 -1.7624816 -0.13867037 -1.0070753
000090 7c d3 04 bf de b3 87 c0 65 7e 91 3d a4 d3 3a bf
       -0.518852 -4.2407064 0.07104186 -0.7297919
0000a0 32 3c 93 bf a0 3e be 3d 18 28 21 be 7a 28 5e c0
       -1.1502745 0.092892885 -0.15737951 -3.4712205
0000b0 60 5f 9c c0 4a 85 8f 3d 28 1b de 3c 04 4a 97 c0
       -4.8866425 0.07007845 0.027112558 -4.727785
0000c0 a4 d5 03 be a5 12 b3 3e d4 f3 ca c0 c1 96 0c be
       -0.12874466 0.34975162 -6.342264 -0.13729383
0000d0 8c bb 08 be a9 ad 3d c0 24 82 23 3e e2 70 c4 bd
       -0.13352793 -2.9637244 0.15967613 -0.09591843
0000e0 46 09 9b 3c c4 80 4d 3f e4 f2 9d bd a4 1e 13 c0
       0.01892532 0.80274606 -0.07712343 -2.2987452
0000f0 46 fc 40 3f 99 d5 23 bf 7c 95 5c be 1f e5 1c 3e
       0.7538494 -0.639978 -0.21541399 0.15321778
000100 cd 21 1f 3e f6 24 91 c0 50 f3 89 bf cf c6 bb 3e
       0.15540238 -4.535762 -1.0777378 0.36675116
000110 ba d2 95 bf 94 9d c2 3e 19 17 18 c0 dd 7e 3f be
       -1.1704934 0.38010848 -2.3764098 -0.18700738
000120 a7 70 80 bd 47 60 52 bf dd 42 a2 c0 bb 06 65 3f
       -0.06271487 -0.8217816 -5.070662 0.89463395
000130 91 5c f8 be 19 b6 83 bf 9f 0b 8e c0 48 e5 2c bf
       -0.48508123 -1.0289947 -4.4389186 -0.67537355
000140 5e 9b f8 be 23 d6 a1 be cf 9f 60 c0 b4 b3 83 c0
       -0.48556036 -0.31608686 -3.509754 -4.1156864
000150 06 cc be bf b9 38 55 3e c0 32 67 bf ea 47 de bf
       -1.4906013 0.20822419 -0.90311813 -1.7365696
000160 cd 73 1a bf 0a 38 78 c0 bf b2 ed be 62 a7 4d c0
       -0.6033295 -3.8784204 -0.46425435 -3.2133412
000170 c1 9b 42 c0 d9 cf b1 bf e5 24 92 c0 e4 0b ba be
       -3.0407565 -1.3891555 -4.5670037 -0.36337197
000180 d5 86 31 3e b0 cf 00 bf dd 5b dd 3b 02 fd ab bf
       0.1733659 -0.50316906 0.0067553357 -1.3436587
000190 af 85 cf bf 00 84 d3 be a6 d8 61 3e 63 40 c1 3d
       -1.6212672 -0.41311646 0.22055301 0.09436109
0001a0 28 ef a6 3e c8 10 86 c0 ad 49 fa be 1c e7 e9 bf
       0.32604337 -4.1895485 -0.48884335 -1.8273654
0001b0 16 fd 6e c0 26 b6 36 bf cb d6 2b be 42 2c b8 be
       -3.7341971 -0.71371686 -0.16781156 -0.35971266
0001c0 6a f3 37 be 3a ec 3b c0 b5 0e 0b c0 25 b3 3f be
       -0.17963949 -2.9362931 -2.1727726 -0.18720682
0001d0 fd 95 4e be b0 7a 26 c0 51 4e 4a be db 5d e6 bd
       -0.20174403 -2.6012383 -0.19756438 -0.1124837
0001e0 a6 9a 20 3e ec c0 33 c0 c2 6b 39 be f5 b6 22 bf
       0.15683994 -2.80865 -0.18107513 -0.6356042
0001f0 07 53 20 c0 8f 40 c4 bf 7d 92 54 bf d4 20 7f be
       -2.5050676 -1.5332202 -0.83036023 -0.24914867
000200 8f 5d 05 3f 8a 6c ba c0 19 4d 65 bf 5f 2b 5c bf
       0.52095884 -5.8257494 -0.89570767 -0.8600368
000210 70 eb 2d bd e0 bb 79 bf 29 e7 a7 bc c6 3d 71 bf
       -0.04246086 -0.975523 -0.020495968 -0.94234884
000220 34 e8 b2 bd 0e 69 2b bf 47 e2 b1 bf b2 3e 87 bf
       -0.087356955 -0.66957176 -1.3897179 -1.0566008
000230 2c 1c 55 c0 d6 3d 34 c0 e5 41 4d c0 ba 56 2f bf
       -3.3298445 -2.8162742 -3.207147 -0.6849171
000240 e8 05 09 3f 41 e5 48 c0 02 74 8a c0 00 2b d3 bf
       0.5352464 -3.1389925 -4.326661 -1.6497498
000250 03 2c 24 c0 96 50 7d bb 73 1b aa c0 46 f8 12 c0
       -2.5651863 -0.003865277 -5.3158507 -2.2964034
000260 5d b5 22 c0 b1 dc 32 c0 47 ee 2f c0 de 4f ab be
       -2.5423195 -2.79472 -2.7489183 -0.3345937
000270 c7 12 39 bf 06 40 21 c0 1f ae 2c bf bd 05 cd bd
       -0.72294277 -2.5195327 -0.6745319 -0.1001086
000280 28 f8 7c bf c4 88 15 bf 7d fc c9 3d bb 77 a3 c0
       -0.98816156 -0.5841181 0.098626114 -5.1083655
000290 4d a9 83 bf 35 2c 07 bf de 59 3a be f9 c6 79 c0
       -1.0286041 -0.5280183 -0.18198344 -3.9027693
0002a0 b0 aa cd 3e c0 f2 c9 bf e6 d3 c6 3e b1 17 36 3e
       0.40169287 -1.5777206 0.3883354 0.17782475
0002b0 3a 4f 97 be 07 67 be bf 16 3b cd 3d 2c fb ac c0
       -0.29552633 -1.4875191 0.100210354 -5.4056606
0002c0 a6 d8 5d 3e 25 74 ee be 61 87 8a bf fb 7f 55 3e
       0.21664676 -0.46572986 -1.0822564 0.20849602
0002d0 46 70 17 be 60 48 6b bf a4 ef 2f be b6 94 42 be
       -0.14788923 -0.9190731 -0.1718126 -0.19002041
0002e0 76 e0 5c 3e 1c c2 15 c0 8e 59 f8 3d 7b 69 ed bf
       0.2157 -2.3399725 0.12126456 -1.8547815
0002f0 a0 a1 79 c0 14 ce 4b 3e aa 3a 3e bf 69 f6 8d c0
       -3.9004898 0.19902831 -0.74308264 -4.4363294
000300 95 cc 8f c0 d2 68 6f 3f e8 cd 43 bf 41 47 2d c0
       -4.4937234 0.9351932 -0.76486063 -2.707474
000310 49 01 0b c0 7e 6b 87 bf a9 b0 df bf 3f 99 2e c0
       -2.1719534 -1.0579679 -1.7475787 -2.7281034
000320 19 78 c5 3d 66 55 05 bf 54 44 db be 64 27 00 c0
       0.096420474 -0.5208343 -0.42825568 -2.0024042
000330 98 31 90 bf 95 46 37 c0 de 95 51 c0 e6 1e 6b c0
       -1.1265135 -2.863683 -3.2747722 -3.673761
000340 e8 bf aa c0 14 fb 8e bf bb c6 87 3f 06 8b 9b bf
       -5.335926 -1.1170373 1.0607523 -1.2151802
000350 76 27 29 bf 4b a7 9c bd 98 7c 36 be f8 32 c9 bd
       -0.6607584 -0.07649096 -0.17820966 -0.09824175
000360 28 81 78 bf 7f 4d 31 3f 08 6f b8 bf 1f 25 ba bf
       -0.97072077 0.69258875 -1.4408884 -1.4542578
000370 77 9a a1 c0 d1 d1 ef 3e d5 c9 dd be 22 ad 58 3d
       -5.0501056 0.46839765 -0.43318048 0.052899487
000380 f8 60 42 c0 7f 9f c5 bf c2 2e 09 3e 8c f7 ae bf
       -3.0371685 -1.5439299 0.13396743 -1.3669295
000390 f9 e6 f8 bf d7 ed 55 c0 b0 31 46 be 91 33 8d bf
       -1.9445487 -3.3426416 -0.19354892 -1.1031362
0003a0 2a f8 68 c0 5b f0 a0 c0 6a a8 a2 c0 72 68 8c c0
       -3.6401467 -5.0293403 -5.0830584 -4.3877497
0003b0 d5 c5 ac bf 94 5a 86 bf 20 de 47 3d 2b 2a a2 3e
       -1.3497874 -1.0496392 0.04879582 0.31672797
0003c0 34 c5 54 be 00 80 ac bf 37 c9 60 3e ce ff 52 be
       -0.20778352 -1.3476562 0.21951757 -0.20605394
0003d0 ee 27 09 be 9c 62 a2 be 49 17 18 be f2 e1 32 be
       -0.13394138 -0.31715858 -0.14852633 -0.17469004
0003e0 0c 21 1c 3e 93 72 25 c0 ed 3c 4d be 13 66 8a 3e
       0.15246981 -2.585118 -0.20042773 0.27031
0003f0 d7 76 07 c0 72 bd 92 c0 a8 44 d6 bf 0f 07 35 c0
       -2.1166284 -4.5856256 -1.6739702 -2.8285558
